…
V_v_2vi","executionInfo":{"status":"ok","timestamp":1700829314388,"user_tz":0,"elapsed":802,"user":{"displayName":"Max C","userId":"15129973457982956339"}},"outputId":"eb35c123-7477-44fc-8c8c-a24a1b4a0dd5","colab":{"base_uri":"https://localhost:8080/"}},"execution_count":10,"outputs":[{"output_type":"stream","name":"stdout","text":["Model: \"sequential\"\n","_________________________________________________________________\n"," Layer (type)                Output Shape              Param #   \n","=================================================================\n"," conv2d (Conv2D)             (None, 75, 100, 32)       896       \n","                                                                 \n"," conv2d_1 (Conv2D)           (None, 75, 100, 32)       9248      \n","                                                                 \n"," max_pooling2d (MaxPooling2  (None, 37, 50, 32)        0         \n"," D)                                                              \n","                                                                 \n"," dropout (Dropout)           (None, 37, 50, 32)        0         \n","                                                                 \n"," conv2d_2 (Conv2D)           (None, 37, 50, 64)        18496     \n","                                                                 \n"," conv2d_3 (Conv2D)           (None, 37, 50, 64)        36928     \n","                                                                 \n"," max_pooling2d_1 (MaxPoolin  (None, 18, 25, 64)        0         \n"," g2D)                                                            \n","                                                                 \n"," dropout_1 (Dropout)         (None, 18, 25, 64)        0         \n","                                                                 \n"," flatten (Flatten)           (None, 28800)             0         \n","                                                                 \n"," dense (Dense)               (None, 128)               3686528   \n","                                                                 \n"," dropout_2 (Dropout)         (None, 128)               0         \n","                                                                 \n"," dense_1 (Dense)             (None, 2)                 258       \n","                                                                 \n","=================================================================\n","Total params: 3752354 (14.31 MB)\n","Trainable params: 3752354 (14.31 MB)\n","Non-trainable params: 0 (0.00 Byte)\n","_________________________________________________________________\n"]}]},{"cell_type":"code","execution_count":11,"metadata":{"id"
…
